trained_model.pt (torch, 28109 bytes, 5 tensors)

fc1.weight f4 [64, 7]
-0.32734188 0.49820536 0.016375475 -0.19488902 0.24927583 0.38020995 0.12837672 -0.12123197
0.39377022 -0.011887109 -0.509873 0.08306798 -0.5102069 0.093768306 0.51101387 0.4984188
-0.07496345 0.26070803 -0.44424328 -0.028500084 -0.18906182 -0.038295 -0.4314248 0.09697395
-0.5039672 -0.25776955 0.165089 -0.05594686 -0.48401934 0.38177457 0.099747434 0.060832694
-0.4323835 -0.11788573 0.50125635 0.4185894 0.5062473 0.2411642 0.050101157 -0.26090732
-0.26867568 0.07944714 -0.06152898 -0.17167522 -0.2804251 -0.14359587 -0.27498055 -0.50923485
0.25595987 -0.28310207 0.435286 -0.502278 0.087631084 -0.43140155 -0.0963325 -0.05836146
0.23302832 0.4337666 0.2536289 -0.5132451 -0.2858997 -0.11576782 0.04761963 0.09449302
0.4770339 -0.2940545 -0.28623635 -0.27214855 0.43746 0.28506836 -0.47730148 -0.47511572
0.35532528 -0.4152526 0.10731582 -0.3672242 0.01799292 -0.07156343 -0.06298958 -0.16871443
0.4260569 0.25051582 0.51276535 0.17760955 -0.09884127 0.00057509256 0.23365301 0.09406886
-0.2690205 -0.30036548 0.22606373 0.12016927 0.18833037 -0.5136183 -0.27325153 -0.2843518
-0.29489088 0.26098233 -0.04125736 -0.038990412 -0.00875331 -0.07377549 -0.4353979 -0.5002632
0.13942 0.42175412 0.37147194 0.079990886 0.16372181 -0.056895893 0.0018584812 -0.43470255
-0.12363184 -0.22336018 0.50425744 -0.044171788 -0.08369315 -0.07987111 -0.08240003 0.07858419
-0.15649967 -0.08518917 0.25044963 0.5164322 -0.1406483 -0.09565019 0.080076754 -0.43471292
0.070238575 0.30378613 -0.16921425 0.5068669 -0.015158486 0.07058921 0.50602144 0.056136474
0.09612588 -0.25070623 -0.28118291 -0.07931225 -0.4990016 0.5071549 0.08919674 -0.12076609
-0.28783667 0.47700855 -0.49146032 0.2310874 -0.07219993 -0.089718714 -0.494287 -0.1342849
0.50194633 -0.084620826 0.091019355 -0.18789573 -0.13246286 -0.07286787 -0.26011884 -0.5036448
0.069638215 0.3709815 0.28659007 0.43612373 0.06252382 -0.4412723 0.50229573 0.10422504
-0.09085835 -0.29388466 0.047341127 0.44188684 0.088461526 0.5095586 0.08765426 0.09803147
-0.4648918 0.093050174 0.16433291 -0.15382548 0.502548 -0.09562227 0.26077598 0.48743773
0.50616753 0.4407344 -0.49692404 -0.08191706 -0.09633374 -0.1680433 -0.36278975 -0.122978546
-0.50259817 0.06480388 0.091216154 0.25361735 -0.50242186 0.50151515 0.24002731 -0.04106477
-0.42109403 -0.26235503 -0.080779485 -0.15157561 0.16377191 -0.20797803 0.2528938 0.5103887
-0.27847344 0.25490332 0.33275336 0.43015137 -0.07297316 0.15602429 0.4273576 -0.24168624
0.24858533 0.12923765 -0.36899793 0.086327486 -0.5090709 -0.36923808 0.12382929 -0.1150872
-0.092918254 -0.17489363 -0.10160308 0.08860351 -0.2241854 0.51132214 0.09856418 -0.41874605
0.37041026 0.2543701 0.05246536 -0.28157458 -0.31909925 -0.12725492 -0.18636738 -0.08769508
0.10483408 -0.09449385 -0.46352482 -0.50466526 0.26402822 0.16656308 -0.38715804 -0.07982984
0.39967823 0.08617023 0.50922805 -0.25576404 -0.095505334 -0.0018830353 -0.09714829 -0.24081573
00000000: 5b99 a7be c614 ff3e dc25 863c fd90 47be
00000010: 2a42 7f3e e1aa c23e 3075 033e 7848 f8bd
00000020: 409c c93e 26c2 42bc 0987 02bf 8c1f aa3d
00000030: eb9c 02bf 9909 c03d ced1 023f c030 ff3e
00000040: 7086 99bd 867b 853e db73 e3be 0279 e9bc
00000050: 6c99 41be 38db 1cbd b6e3 dcbe 479a c63d
00000060: ff03 01bf 5ffa 83be 170d 293e 8928 65bd
00000070: 62d1 f7be f577 c33e 6248 cc3d b42b 793d
00000080: 5f61 ddbe 136e f1bd 5652 003f 5a51 d63e
00000090: 6c99 013f bff3 763e df36 4d3d a595 85be
000000a0: dc8f 89be 2fb5 a23d d005 7cbd a1cb 2fbe
000000b0: e193 8fbe cc0a 13be 40ca 8cbe 375d 02bf
000000c0: 2c0d 833e c1f2 90be cedd de3e 4a95 00bf
000000d0: ed77 b33d aae0 dcbe f949 c5bd 6d0c 6fbd
000000e0: fa9e 6e3e a816 de3e a6db 813e 0864 03bf
000000f0: 7261 92be ae17 edbd cd0c 433d 8e85 c13d
00000100: ca3d f43e 508e 96be 928d 92be 0e57 8bbe
00000110: c2fa df3e 7bf4 913e dc60 f4be 5e42 f3be
00000120: 32ed b53e fd9b d4be 66c8 db3d cf04 bcbe
00000130: e365 933c d98f 92bd ae00 81bd 7ac3 2cbe
00000140: 2124 da3e 9c43 803e 9744 033f 47df 353e
00000150: 4b6d cabd cfc1 163a bc42 6f3e 2da7 c03d
00000160: 0ebd 89be 81c9 99be 407d 673e 4e1b f63d
00000170: add9 403e 7d7c 03bf a0e7 8bbe 8f96 91be
00000180: f0fb 96be 7a9f 853e 7afd 28bd 69b4 1fbd
00000190: 0b6a 0fbc 9b17 97bd 79ec debe 4011 00bf
000001a0: 1ec4 0e3e 28f0 d73e 9231 be3e 43d2 a33d
000001b0: b1a6 273e ab0b 69bd 4898 f33a 5591 debe
000001c0: b132 fdbd 88b8 64be 0417 013f 7aed 34bd
000001d0: 5067 abbd 7793 a3bd 59c1 a8bd bff0 a03d
000001e0: 7341 20be a977 aebd ef3a 803e e734 043f
000001f0: 1c06 10be 3fe4 c3bd 48ff a33d b192 debe
00000200: 3ed9 8f3d db89 9b3e 8046 2dbe 07c2 013f
00000210: 4c5b 78bc 1391 903d 9f8a 013f 5cef 653d
00000220: a5dd c43d 915c 80be 35f7 8fbe 766e a2bd
00000230: 237d ffbe e7d4 013f c8ac b63d 3654 f7bd
00000240: 545f 93be 773a f43e b0a0 fbbe 2da2 6c3e
00000250: 8fdd 93bd 72be b7bd 3013 fdbe fb81 09be
00000260: 8e7f 003f af4d adbd 5b68 ba3d bd67 40be
00000270: 58a4 07be c03b 95bd 4c2e 85be deee 00bf
00000280: 7b9e 8e3d 4af1 bd3e efbb 923e 9c4b df3e
00000290: 7d0c 803d 71ee e1be 7496 003f f073 d53d
000002a0: f113 babd 0d78 96be c5e8 413d fe3e e23e
000002b0: 512b b53d 6f72 023f 1484 b33d b9c4 c83d
000002c0: 4c06 eebe 1791 be3d e346 283e 6d84 1dbe
000002d0: fca6 003f 9cd5 c3bd 6e84 853e 7091 f93e
000002e0: 3294 013f f0a7 e13e d46c febe 22c4 a7bd
000002f0: a04a c5bd 8b13 2cbe 94bf b9be 2ddc fbbd
00000300: 46aa 00bf e6b7 843d 89cf ba3d 22da 813e
00000310: b89e 00bf 4c63 003f b8c9 753e 8833 28bd
00000320: a399 d7be 6653 86be b76f a5bd a336 1bbe
00000330: d3b3 273e 31f8 54be 4c7b 813e d5a8 023f
00000340: 1294 8ebe b082 823e a65e aa3e cd3c dc3e
00000350: f472 95bd d5c4 1f3e 9ece da3e 997c 77be
00000360: 278d 7e3e e056 043e 4ced bcbe 77cc b03d
00000370: 7852 02bf c60c bdbe 369a fd3d d7b2 ebbd
00000380: ed4b bebd 5117 33be 4715 d0bd c275 b53d
00000390: dc90 65be 02e6 023f 04dc c93d e265 d6be
000003a0: 6aa6 bd3e cc3c 823e ebe5 563d 8b2a 90be
000003b0: fa60 a3be 1d4f 02be 17d7 3ebe 7a99 b3bd
000003c0: 40b3 d63d fe85 c1bd 2053 edbe be31 01bf
000003d0: b52e 873e 838f 2a3e 9439 c6be d47d a3bd
000003e0: a0a2 cc3e 047a b03d c55c 023f 81f3 82be
000003f0: 4d98 c3bd 2ed0 f6ba aff5 c6bd 6698 76be

fc1.bias f4 [64]
-0.14750023 -0.25989676 -0.21092436 -0.5612849 0.76373583 -0.24950759 0.28992647 -0.22508894
-0.47662818 -0.006021657 -0.32252726 -0.38648942 0.5286242 0.5146562 0.1593017 0.21034259
-0.2440417 -0.3772002 -0.7691198 0.39065465 -0.035840593 -0.38597843 -0.25082543 -0.31395155
-0.6293016 -0.5343158 0.0018483987 -0.34590754 0.20201142 -0.31145304 -0.7983776 -0.4918553
-0.58190316 0.29346734 0.40523502 -0.6665152 -0.4309385 -0.26552504 -0.35034782 0.21913055
-0.2173962 -0.39671522 0.8419972 -0.4162783 0.18885009 -0.30170164 -0.7133438 0.6748951
0.5374774 -0.5601949 -0.49895278 -0.5581413 0.018515697 0.85379744 -0.56595725 -0.33974376
-0.44315597 -0.25808513 -0.6681892 -0.3974298 0.85596293 0.06895716 0.65149546 0.7236806
00000000: 4d0a 17be 3011 85be 8efc 57be 5eb0 0fbf
00000010: 3184 433f eb7e 7fbe 3e71 943e b77d 66be
00000020: 9c08 f4be 5251 c5bb 4b22 a5be f1e1 c5be
00000030: ea53 073f 82c0 033f fc1f 233e 0c64 573e
00000040: 11e6 79be 6220 c1be 09e5 44bf e303 c83e
00000050: 96cd 12bd f79e c5be 316c 80be 42be a0be
00000060: e919 21bf ecc8 08bf f845 f23a cb1a b1be
00000070: 15dc 4e3e c676 9fbe 7962 4cbf 75d4 fbbe
00000080: 9bf7 14bf 5a41 963e f77a cf3e bda0 2abf
00000090: f9a3 dcbe e6f2 87be ca60 b3be c263 603e
000000a0: 1c9d 5ebe 421e cbbe 218d 573f 6e22 d5be
000000b0: eb61 413e a378 9abe b39d 36bf edc5 2c3f
000000c0: 1e98 093f ef68 0fbf bd76 ffbe 59e2 0ebf
000000d0: 3bae 973c 7892 5a3f 93e2 10bf e5f2 adbe
000000e0: 57e5 e2be bc23 84be 730e 2bbf eb7b cbbe
000000f0: 6320 5b3f 6939 8d3d 68c8 263f 2243 393f

fc2.weight f4 [32, 64]
-0.07600904 -0.25230777 0.23580249 0.40718582 -0.2641277 0.017876038 0.23003715 0.5099763
0.34742746 0.114904575 0.2474012 0.25075015 -0.08513368 0.22849572 -0.22463728 0.08289061
0.0074784914 0.11320171 0.27890205 0.020221028 0.3134456 0.44992152 -0.08710535 0.32063463
0.1481232 0.4533483 -0.047075372 0.31048563 -0.1405009 0.3259391 0.28810295 0.19393288
0.21286017 -0.3625166 -0.28990617 0.36843348 0.32736588 -0.067835346 -0.140542 -0.26584437
0.09668028 -0.20801161 -0.22878174 0.32827199 -0.19181448 -0.3610752 0.52431846 -0.10234977
0.05063765 0.20258047 0.40575865 0.23481008 0.26799032 0.073155746 0.29697883 0.28260356
-0.5275713 0.2479813 0.37812543 0.13807654 0.02448466 0.23305696 -0.24573956 -0.0984647
-0.4009938 -0.5342595 -0.18575369 0.52929235 -0.19040294 0.037729412 0.07366077 0.2360227
0.1831812 -0.09014059 0.326528 -0.2693603 0.033598952 0.078966685 -0.3322379 0.029055404
0.25319886 0.09009883 -0.1569255 0.1726974 -0.42824617 0.5216924 -0.42308217 -0.3441532
-0.03516098 -0.2599038 -0.2589227 -0.054682296 -0.094778314 0.23318186 0.49284735 0.5418048
-0.04369172 0.0053731347 -0.121587664 -0.3490893 0.047874518 -0.37967607 -0.38145775 0.091400795
-0.25489125 -0.09401091 -0.030001283 0.5059274 -0.06330242 0.06346666 0.5259282 -0.10903457
0.18604265 0.21504638 0.3119258 0.094304375 0.2544174 0.00915401 -0.09951212 0.20374018
-0.36366367 -0.08965905 0.4581061 -0.30609134 0.051698364 0.10867325 -0.09261117 -0.13989165
0.33667555 -0.09684916 0.0663681 -0.16026619 -0.0072380495 0.09422919 -0.18667516 0.10765748
-0.26440585 0.41979662 -0.25738403 0.50510335 -0.009986411 -0.4746106 -0.3718004 -0.19171715
-0.5429281 0.12819794 0.55063987 -0.3300679 0.066747025 0.31560847 0.052223302 0.46485397
0.5065682 0.5372459 0.4262208 -0.2554935 -0.22996575 -0.071031466 -0.0663783 -0.3996716
0.5269185 -0.470185 -0.31114239 0.5230587 0.40836614 0.4253104 -0.3045875 -0.3241739
-0.10816162 0.082347825 -0.23323603 -0.29825792 -0.5074866 -0.23571083 -0.002372401 0.09409326
0.0020064246 0.22460611 -0.14389205 0.53286684 -0.5237932 -0.49318936 0.433236 -0.007702125
0.20248707 0.29115131 0.040525597 0.5185219 -0.51943207 -0.0017685525 -0.040899687 -0.03996652
-0.0794052 0.13103886 0.040583678 -0.29475507 -0.24835376 0.14317538 -0.07933246 0.09072797
0.06420765 0.114642225 -0.17612997 -0.23112682 -0.10496644 -0.037319023 -0.011315186 -0.106614195
-0.16019687 -0.39217392 0.059813473 0.019312844 0.0149542345 -0.23319232 -0.07279015 -0.031159872
-0.01294667 -0.0059228404 0.051217493 -0.13562398 0.013542113 -0.10568295 -0.18302265 -0.11146045
-0.022985673 -0.21330397 -0.10518224 -0.01988239 -0.04551407 -0.0806865 0.1326493 -0.10865999
0.06851268 -0.016810011 -0.022654867 -0.10812452 -0.06194847 0.115051284 0.0921321 -0.006314422
0.011973693 -0.039468013 -0.14729615 -0.10164701 -0.19297244 -0.06589184 0.022494685 -0.43823084
0.023122981 -0.25876734 0.011680976 -0.0077762073 -0.09480574 0.035294786 -0.10185439 -0.043509595
00000000: a1aa 9bbd 7c2e 81be 3576 713e a97a d03e
00000010: bf3b 87be c570 923c dc8e 6b3e cf8d 023f
00000020: 03e2 b13e 1753 eb3d bd56 7d3e 5362 803e
00000030: 915a aebd c8fa 693e 5107 66be 8dc2 a93d
00000040: 220e f53b 4cd6 e73d 40cc 8e3e 92a6 a53c
00000050: f17b a03e 1d5c e63e 4a64 b2bd 392a a43e
00000060: 9cad 173e 451d e83e 1bd2 40bd f9f7 9e3e
00000070: 78df 0fbe 7de1 a63e 3b82 933e 5796 463e
00000080: 04f8 593e c79b b9be 956e 94be 50a3 bc3e
00000090: 809c a73e 42ed 8abd 3eea 0fbe c11c 88be
000000a0: 5000 c63d ff00 55be c345 6abe 4413 a83e
000000b0: 046b 44be d9de b8be bc39 063f c29c d1bd
000000c0: 6d69 4f3d 4171 4f3e 99bf cf3e 0e72 703e
000000d0: 0736 893e aed2 953d 9c0d 983e 6ab1 903e
000000e0: ea0e 07bf cfee 7d3e a899 c13e f063 0d3e
000000f0: 0e94 c83c 7ca6 6e3e 27a3 7bbe dca7 c9bd
00000100: 0f4f cdbe 3bc5 08bf 3736 3ebe b47f 073f
00000110: fdf8 42be 288a 1a3d 75db 963d efaf 713e
00000120: da93 3b3e a19b b8bd ae2e a73e 98e9 89be
00000130: 0e9f 093d 49b9 a13d 161b aabe 9905 ee3c
00000140: 48a3 813e bc85 b83d 14b1 20be 96d7 303e
00000150: 1543 dbbe a28d 053f 3a9e d8be d934 b0be
00000160: f604 10bd 1c12 85be 8491 84be 8bfa 5fbd
00000170: 221b c2bd 3ac7 6e3e 7d56 fc3e b8b3 0a3f
00000180: 17f6 32bd 1f11 b03b f402 f9bd d5bb b2be
00000190: 1218 443d e764 c2be 6e4e c3be 5730 bb3d
000001a0: 1b81 82be cb88 c0bd 40c5 f5bc 7584 013f
000001b0: b3a4 81bd cffa 813d 3ba3 063f 844d dfbd
000001c0: f781 3e3e 1e35 5c3e bdb4 9f3e a722 c13d
000001d0: ff42 823e b3fa 153c 03cd cbbd 44a1 503e
000001e0: 2032 babe 2a9f b7bd e28c ea3e 01b8 9cbe
000001f0: aac1 533d 1590 de3d edaa bdbd c23f 0fbe
00000200: bd60 ac3e da58 c6bd 00ec 873d d21c 24be
00000210: 292d edbb 3cfb c03d c627 3fbe 867b dc3d
00000220: 3460 87be 95ef d63e d7c7 83be 744e 013f
00000230: 0b9e 23bc 2900 f3be 9f5c bebe 8051 44be
00000240: 56fd 0abf 5246 033e bcf6 0c3f a9fe a8be
00000250: aab2 883d 6f97 a13e 1ae8 553d 5701 ee3e
00000260: 74ae 013f f388 093f 9d39 da3e 0bd0 82be
00000270: 247c 6bbe f278 91bd 59f1 87bd c2a1 ccbe
00000280: 21e4 063f 17bc f0be 0e4e 9fbe 2de7 053f
00000290: 5e15 d13e 49c2 d93e e5f2 9bbe 1ffa a5be
000002a0: d783 ddbd faa5 a83d 6dd5 6ebe 43b5 98be
000002b0: a4ea 01bf 2e5e 71be 497a 1bbb f8b3 c03d
000002c0: 387e 033b 25ff 653e 7058 13be f669 083f
000002d0: 5017 06bf 5183 fcbe 1cd1 dd3e 1b62 fcbb
000002e0: c558 4f3e c911 953e 2bfe 253d dabd 043f
000002f0: 80f9 04bf c6ce e7ba 6e86 27bd efb3 23bd
00000300: 329f a2bd 0d2f 063e 123b 263d 23ea 96be
00000310: 7350 7ebe 919c 123e 0f79 a2bd 96cf b93d
00000320: 4d7f 833d 8bc9 ea3d 6a5b 34be 82ac 6cbe
00000330: a5f8 d6bd d5db 18bd 5463 39bc 8b58 dabd
00000340: a60a 24be 05cb c8be f9fe 743d f835 9e3c
00000350: 9b02 753c f8c9 6ebe 0113 95bd fd42 ffbc
00000360: 451e 54bc 6314 c2bb 6fc9 513d 03e1 0abe
00000370: bddf 5d3c 4d70 d8bd 4a6a 3bbe 6045 e4bd
00000380: 734c bcbc 5b6c 5abe c969 d7bd 65e0 a2bc
00000390: f66c 3abd f73e a5bd 38d5 073e 2189 debd
000003a0: 6050 8c3d 26b5 89bc b396 b9bc 6370 ddbd
000003b0: aebd 7dbd 02a0 eb3d c1af bc3d 36e9 cebb
000003c0: 4f2d 443c 36a9 21bd cdd4 16be 4f2c d0bd
000003d0: 919a 45be 4df2 86bd c646 b83c cb5f e0be
000003e0: 686c bd3c 277d 84be 9061 3f3c 8ecf febb
000003f0: 8329 c2bd 4491 103d 0999 d0bd 1e37 32bd

fc2.bias f4 [32]
-0.44752944 -0.20086436 -0.44815767 0.115345076 0.15584598 0.42444938 -0.45905858 0.40206653
-0.36914575 0.36298785 -0.52119243 0.40067917 -0.33681804 -0.3164378 0.2646359 0.21404327
-0.108469434 -0.018402109 0.1500599 -0.47052908 0.3022421 0.2296832 -0.16650888 0.18237028
0.12495925 0.42666364 0.39112645 0.28456223 0.26612112 -0.030503618 0.4381124 -0.14626156
00000000: 9422 e5be 63af 4dbe ec74 e5be 0a3a ec3d
00000010: 1796 1f3e 6e51 d93e ba09 ebbe aadb cd3e
00000020: ac00 bdbe 8bd9 b93e de6c 05bf d225 cd3e
00000030: 6a73 acbe 2304 a2be 5b7e 873e 292e 5b3e
00000040: 3925 debd 05c0 96bc 4da9 193e 30e9 f0be
00000050: 7abf 9a3e 1332 6b3e 4e81 2abe 46bf 3a3e
00000060: a3ea ff3d a873 da3e ba41 c83e 24b2 913e
00000070: 0741 883e b9e2 f9bc 4550 e03e 97c5 15be

fc3.weight f4 [1, 32]
0.30319667 0.4149008 0.43828964 -0.07022684 -0.062596805 -0.1075667 0.25497738 -0.07779207
0.3755884 -0.20249525 0.3716787 -0.22080174 0.30544513 0.19172464 -0.22729038 -0.21987696
-0.073797554 0.11201466 0.022133714 0.4269023 -0.31468502 -0.20428939 0.05561839 -0.085813224
-0.30603728 -0.13357264 -0.4160541 -0.19218506 -0.1661124 -0.05512708 -0.12623549 0.44482285
00000000: 983c 9b3e e16d d43e 8067 e03e 17d3 8fbd
00000010: c132 80bd ee4b dcbd 658c 823e 7351 9fbd
00000020: 1f4d c03e ea5a 4fbe ac4c be3e da19 62be
00000030: 4e63 9c3e 7753 443e cfbe 68be 6d27 61be
00000040: 2c23 97bd f167 e53d c351 b53c f092 da3e
00000050: 651e a1be 3d31 51be 1cd0 633d d8be afbd
00000060: ebb0 9cbe 44c7 08be 0b05 d5be 29cc 44be
00000070: 5e19 2abe efcc 61bd e043 01be d2bf e33e
