trained_model.pt (torch, 28109 bytes, 5 tensors)

fc1.weight f4 [64, 7]
000000 7a 44 53 3e 11 38 d8 3e 61 53 8c 3e 43 24 48 bc
       0.2063159 0.42230275 0.27407363 -0.012215677
000010 0f 7f 01 bf 48 bc 71 be 35 2a a4 3d 2f be 96 3d
       -0.505845 -0.2360698 0.08015863 0.073604934
000020 b4 5d 25 be a5 39 84 be 4c 24 e8 3e d0 9b c1 bd
       -0.16149026 -0.2582523 0.45340192 -0.09453547
000030 80 07 05 bf 9f 4d 67 3e b5 af 84 be 2b 1e 11 be
       -0.5196457 0.22588204 -0.25915304 -0.14171664
000040 b5 e1 48 be bf 4b 31 be 5c 9f a6 bd a9 13 04 3f
       -0.1961735 -0.17314051 -0.08135864 0.515925
000050 99 b5 36 3e 8d ab b0 bd 52 98 e6 3e 41 a2 d4 bd
       0.17842712 -0.08626471 0.45038086 -0.1038251
000060 b9 23 69 3e 9c df ff be fa 94 83 be 62 6d 23 3e
       0.22767533 -0.49975288 -0.25699598 0.15959695
000070 65 06 87 3e 04 cf be 3d 09 68 02 bf ef 9d 86 3e
       0.26372066 0.09316829 -0.50939995 0.2629237
000080 95 16 01 bf f9 d7 b6 bd 96 56 f9 3c ec 01 28 3e
       -0.5042508 -0.08927912 0.030436795 0.16406983
000090 0a f8 4e bd dd eb e6 bd cb 3d b1 3d 9f 8d 44 be
       -0.050529517 -0.11275456 0.08654364 -0.19194649
0000a0 70 f2 04 3f 42 86 a4 bd ff 5b 5a 3e 1d 7f 8c be
       0.5193243 -0.0803342 0.21324156 -0.2744073
0000b0 d7 a9 87 bd eb b7 03 bf 3a c2 c6 bd a5 57 e1 3e
       -0.06624191 -0.5145251 -0.097050145 0.4401218
0000c0 96 0e 96 bd 7f 0f aa be b5 59 cb 3d f4 cf 07 be
       -0.07327001 -0.33214948 0.0992922 -0.13262922
0000d0 19 a8 dd be 35 85 ea be 60 c1 04 bf c7 d9 df 3e
       -0.4329231 -0.45804754 -0.51857567 0.43720838
0000e0 9d 30 f0 bc ff ce 8b 3d d2 a2 f2 3e 2f f7 ec 3d
       -0.029320056 0.06826591 0.47389847 0.11570584
0000f0 10 b3 92 be dc 3a dd be 0e 03 a1 3d c2 1e ba 3d
       -0.2865224 -0.4320897 0.07861911 0.09087898
000100 6e a4 ef bd 99 6f 3d bd ef b5 82 3e f9 76 00 bd
       -0.11701284 -0.046249006 0.2552943 -0.03136346
000110 b9 90 04 3f 1d 74 95 bd b8 b1 cd 3c 55 2b 04 3f
       0.5178333 -0.072975375 0.025109157 0.5162862
000120 0c f4 64 3e 02 2a 2e 3e da d9 7b be b1 79 86 be
       0.22358721 0.17008212 -0.24594823 -0.26264718
000130 9b d2 ab 3d 3c 49 ac 3d 2e 6a ff be 54 f4 89 3d
       0.08389779 0.08412406 -0.49885696 0.06736055
000140 a3 ab 87 3e fe 31 b3 3d c4 70 03 3f 56 60 b1 3d
       0.26498136 0.0874977 0.5134394 0.08660953
000150 92 c7 a8 bd 85 c5 c3 3e 1e f2 99 3d 74 dc ed 3e
       -0.0824119 0.38236633 0.07516883 0.46457255
000160 54 35 fa be ff c8 a2 3e 46 c2 c8 3d 62 2d 37 3e
       -0.4886881 0.31793973 0.0980268 0.17888406
000170 bd 5f 63 3d eb d3 9c bd b5 71 86 3e e8 f3 a6 bc
       0.055511225 -0.07657608 0.26258627 -0.020379975
000180 92 4d f7 be 22 fc 52 3e a0 11 c4 bd 79 08 a0 3b
       -0.4830137 0.20603994 -0.09573674 0.0048838225
000190 68 83 83 be 42 68 9e 3e b0 e0 dd 3e f9 75 f8 be
       -0.25686193 0.30938917 0.43335485 -0.48527506
0001a0 79 2a 9e 3e e1 14 80 3e 47 f3 79 bd ac b3 e4 bd
       0.3089178 0.2501593 -0.061023023 -0.11167082
0001b0 71 60 ca 3e ad 4d 00 bd 38 f7 94 3e e5 a7 65 be
       0.39526704 -0.031324077 0.29094863 -0.22427328
0001c0 c1 85 94 bd ec 38 0e 3e b6 94 3d bd 4c 86 02 bf
       -0.07252074 0.13888901 -0.0462844 -0.5098617
0001d0 78 d1 af bd 24 da 68 3d 99 d4 cc 3d c8 4e bc 3d
       -0.08584875 0.05684866 0.10001487 0.09194714
0001e0 a5 76 02 be 62 d0 83 be e5 4a b3 be 05 cc df be
       -0.12740572 -0.2574492 -0.35018077 -0.43710342
0001f0 19 7c b7 3d 2d d6 36 3e 3b 1c de be 08 46 04 3f
       0.089592166 0.17855139 -0.43380913 0.5166936
000200 21 22 f7 3d 34 d8 44 bd 67 02 83 3d dd 19 a7 be
       0.120670564 -0.04805775 0.063969426 -0.3263692
000210 b6 ab b2 bd 52 fb 8a 3e 67 64 02 3f f7 72 36 3e
       -0.087241575 0.27144867 0.5093445 0.17817293
000220 91 3b 9b 3d 7d 11 84 be b3 4d 86 be 14 98 46 3e
       0.07579721 -0.25794592 -0.26231155 0.1939395
000230 56 41 aa 3d 6f 3b a7 bd 43 00 a4 3d a1 0c d6 3e
       0.08313243 -0.08165633 0.080078624 0.4180651
000240 2f eb f7 be f6 c5 a0 be 93 a3 7b 3d a4 8b ac bd
       -0.48421618 -0.31401032 0.061435293 -0.08425072
000250 ce e9 04 3f 1b 53 be 3e 26 d5 db 3e 54 39 8b be
       0.5191926 0.3717278 0.42936057 -0.27192175
000260 3f 1b 8b be 80 57 84 3e 95 84 ae 3d 18 3e 03 3f
       -0.27169225 0.25848007 0.08521382 0.5126662
000270 fa d8 01 bf bd 9d df 3e b8 35 be be e3 84 7a be
       -0.50721705 0.43675032 -0.3715036 -0.24464755
000280 8b 87 5f be 5c c0 c3 be 0f e8 01 3f cd 2a ab 3d
       -0.2182905 -0.38232696 0.5074472 0.08357773
000290 6d 7b 83 3e f9 e0 e2 be 25 10 74 be e0 64 86 be
       0.25680104 -0.44312266 -0.23834284 -0.26248837
0002a0 1a 00 d9 be 64 21 dd bd 2a a2 f5 3e 38 f5 91 3e
       -0.4238289 -0.107973844 0.47975284 0.285074
0002b0 aa 70 02 3e d8 4f cc be 35 0b d4 3d c8 b5 b8 3d
       0.1273829 -0.39904666 0.103537 0.09019047
0002c0 1d 90 a3 be 9e 3e 33 3d 3c 77 99 3e 33 f4 04 3f
       -0.31945887 0.04376089 0.2997378 0.5193512
0002d0 74 e1 e1 be 14 44 ac bd c5 79 84 be f3 ea 3c be
       -0.4411732 -0.08411422 -0.25874153 -0.18449001
0002e0 c1 f7 b1 3d 8e 15 b6 3c 0b f6 04 3f ff 21 6c 3d
       0.086898334 0.022227075 0.5193793 0.05764961
0002f0 ba 65 bc 3e 17 35 c3 3d fa fb 60 3c 71 23 01 3f
       0.3679636 0.095316105 0.013731951 0.50444704
000300 7c e6 57 3e 0a 29 97 3d 40 ca d1 3c 38 7e 96 3d
       0.21084017 0.073808745 0.025609136 0.07348293
000310 90 d6 b6 3d 5c ca 04 bf 38 b0 8a 3d 33 4d 04 bf
       0.08927643 -0.51871276 0.06771892 -0.51680297
000320 b1 88 af 3d 31 8a 04 bf a3 91 ae bd a3 a7 a0 bd
       0.08570994 -0.51773363 -0.08523872 -0.07844474
000330 f3 e3 56 be ad 0c 41 be 2c 2d a9 3d d6 7f 03 3f
       -0.20985393 -0.18852492 0.08260569 0.5136694
000340 81 e0 6d 3e fb 8a 80 3d 00 a1 7e be 6c b4 d4 3d
       0.23230173 0.062765084 -0.24866104 0.10385975
000350 8b 00 92 3e 0c 10 43 be c3 7e 64 bd 0a 31 04 bf
       0.2851604 -0.1904909 -0.055784952 -0.5163733
000360 b9 cc 87 3e df 38 e1 3d d6 7f d5 3e f3 09 cf be
       0.26523378 0.109971754 0.41699094 -0.40437278
000370 eb 5b ed bd e1 b7 e6 be 1f 1a d7 bd 27 f1 c5 bd
       -0.115897976 -0.45062163 -0.10503029 -0.09665137
000380 b5 49 01 bf 11 4e 00 3f e5 31 a3 3d 09 ec c0 bc
       -0.50503093 0.5011912 0.07968501 -0.02355005
000390 a2 68 69 be 7f 47 88 be 00 34 a7 3e c4 df 85 3e
       -0.2279382 -0.26617047 0.3265686 0.26147282
0003a0 b5 f7 eb bd 99 7e 8e be 0c a2 04 3f 33 9a da bd
       -0.11521856 -0.2783096 0.51809764 -0.106739424
0003b0 e1 21 87 be 2b 39 69 be f1 24 9d 3d d3 4b c4 3d
       -0.26393035 -0.22775714 0.07673062 0.09584775
0003c0 ea cf 84 be 52 99 22 3e 84 24 01 3f 97 27 9e be
       -0.25939876 0.158788 0.50446343 -0.3088958
0003d0 bb be 20 be 5f 7d a5 3d bf 45 63 3d ec ab 41 3e
       -0.15697758 0.08080553 0.055486437 0.18913239
0003e0 ca 7f 78 3d 78 82 02 bf ff a8 c1 be 02 32 a2 3d
       0.060668744 -0.5098033 -0.37824246 0.079196945
0003f0 aa 82 cb 3d 6a 60 ce 3e 0e 01 8c be e2 69 84 3e
       0.099370316 0.40307933 -0.27344555 0.25862032

fc1.bias f4 [64]
000000 e7 47 ce be a1 00 1e 3f 7b 8a bf be 24 61 40 be
       -0.40289232 0.6171971 -0.3741034 -0.18787056
000010 6c 13 fe bc 45 d2 0d bf 74 a9 18 bf 94 ab 05 3e
       -0.03101512 -0.5539897 -0.59633565 0.13053733
000020 b9 04 46 3f e3 85 15 bf 11 a5 81 3e 88 54 45 bf
       0.77350956 -0.5840742 0.25321248 -0.7708211
000030 37 5f 1d 3f e9 cc 63 3f 71 a2 c2 be 10 93 00 bf
       0.6147341 0.88984543 -0.38014558 -0.502244
000040 89 89 3b be 71 e7 c9 be 33 d4 9b be e3 6b f5 bd
       -0.18314184 -0.39434388 -0.30435333 -0.119834684
000050 d0 84 07 be 92 34 b9 3e 88 c0 fd 3e 7d 32 42 be
       -0.13234258 0.3617292 0.49560952 -0.18964572
000060 f0 89 cd bd 93 e5 c8 be 70 b5 06 bf 20 93 cc 3e
       -0.10036075 -0.3923765 -0.526206 0.39955997
000070 19 ad 0b bd 89 f8 fb be 9e 27 26 3c af 8a 0f be
       -0.034100626 -0.49213055 0.010141281 -0.14017747
000080 08 c3 f8 3e e1 a7 58 3f 3b 03 26 bf 3a cf c6 be
       0.48586297 0.8463116 -0.6484868 -0.38829976
000090 ff a6 1e 3f 19 60 0c bf 69 d7 eb bd 88 8c c2 be
       0.61973566 -0.54834133 -0.115156956 -0.37997842
0000a0 a7 e4 a8 3c 36 1c cc bd 40 a8 9d be ec e0 32 bf
       0.020616842 -0.09966318 -0.30792427 -0.69874454
0000b0 a0 11 af 3e d3 ac 2a bf 76 95 12 3f 54 fc e3 3e
       0.34193134 -0.6666996 0.5725931 0.4452845
0000c0 9c 8e a5 be 71 86 25 3d d7 d2 23 3d bd bd fa be
       -0.32335365 0.040411416 0.039995994 -0.48972884
0000d0 48 ee cf be 8a 11 63 bf 56 42 90 be be fa 38 3d
       -0.40611482 -0.8869864 -0.2817561 0.045161
0000e0 34 ce 8c 3d 79 c5 c6 be 86 f7 e3 be 22 47 51 3f
       0.068752676 -0.38822535 -0.44524783 0.81749165
0000f0 37 02 85 be b4 17 88 3e da f7 40 3f be 4c de 3e
       -0.25978252 0.26580584 0.7537819 0.43417925

fc2.weight f4 [32, 64]
000000 5c 7a a3 bd 12 6f d6 be cc 66 9c 3e 6d 83 67 3e
       -0.079823226 -0.41881615 0.30547178 0.22608729
000010 86 3f a7 3e b0 b0 e9 3e 64 60 d9 3e 5a e1 20 3e
       0.32665652 0.45642614 0.42456353 0.15710965
000020 59 9e 8a be 04 48 f0 3e 91 f8 95 3d 7c 15 e2 3e
       -0.27073935 0.46929944 0.07322801 0.44157016
000030 62 6a 08 3d bd 32 e6 be 40 9c 79 be de 1e ef 3e
       0.03330458 -0.44960585 -0.24376011 0.46703237
000040 67 97 a6 3e 04 b5 ac 3e a1 ce 87 3e 29 9d b9 bd
       0.32537386 0.33731854 0.26524833 -0.09063179
000050 da c9 a6 3d c2 c3 db bd b6 41 d6 bd 79 45 75 be
       0.08143969 -0.10730697 -0.10461752 -0.23952283
000060 32 83 d8 3c 4e d0 89 3e 9e 25 a0 3d 72 ee 37 3e
       0.026429746 0.26916736 0.07819675 0.17962053
000070 d8 d5 ee 3e 51 42 6a 3e 2c 6f 78 bd 74 aa dd 3e
       0.46647525 0.2287686 -0.060652897 0.43294108
000080 c8 72 b0 bd 16 e5 27 be 58 c4 23 be d8 12 cc be
       -0.08615643 -0.16395983 -0.15992868 -0.39858127
000090 8b 1d c2 be da c8 cf 3e 5c 54 8e 3e 46 f2 3f 3e
       -0.37913164 0.40582925 0.27798736 0.18744764
0000a0 6e 2b 2f bd 5b 97 95 3e 3f cd 22 3e a6 8f ae 3e
       -0.042766027 0.29217038 0.15898608 0.3409397
0000b0 f5 24 88 bc 1a ff f3 3e 83 0f cb bd 24 be 8d bd
       -0.016619185 0.47655565 -0.09915068 -0.06921032
0000c0 a6 70 16 3e 55 04 93 3e e3 d2 85 bd 54 ae d6 3e
       0.1469141 0.28714243 -0.06534364 0.41929877
0000d0 58 82 81 3e b3 fa ee be 1d a0 c8 3e a4 bc 84 be
       0.25294757 -0.46675643 0.39184657 -0.2592517
0000e0 08 0f 5f be 98 97 2b 3e 18 d2 83 3e ea 97 67 be
       -0.21783078 0.16757047 0.25746226 -0.22616544
0000f0 ed 47 f4 3e e0 15 98 bc 4f 1a cf be e5 0a f4 bd
       0.47711125 -0.018565118 -0.4044976 -0.119161405
000100 4d 99 93 bd 6c 88 27 bd 14 3e 04 3d f2 5c 84 3c
       -0.07206974 -0.040901586 0.032285765 0.016157601
000110 7e 9d 90 3e 71 1d 27 3d 93 6c ce be 8f f8 17 3d
       0.28245157 0.040799562 -0.4031721 0.03710228
000120 a2 18 05 3d 28 ce 14 bd fb 66 48 bd 15 55 6e be
       0.032494195 -0.03632942 -0.048926335 -0.23274644
000130 e6 ce 85 bd d7 14 16 3e de 8c 08 3e 29 46 75 be
       -0.06533603 0.14656387 0.13334987 -0.23952545
000140 53 80 b7 3d d8 76 7b bd eb 2c 14 be a3 de 8c 3c
       0.08960023 -0.061392635 -0.1447026 0.017196005
000150 8c 08 6f bd 2a ac 0e 3c 74 2a 1e be cf 5b 01 3d
       -0.05835776 0.008708039 -0.15445882 0.031581696
000160 36 ab ad bd 0e 54 0d 3c 74 3c 7c bd 37 94 03 3e
       -0.084799215 0.008625997 -0.06158109 0.12849508
000170 cf a1 58 be a5 8a 48 be 91 d7 a0 3d d7 91 8d 3d
       -0.21155475 -0.19584139 0.07853616 0.06912582
000180 3a 53 3c 3e f9 19 90 bd 1a f1 7f 3a 12 41 e5 3d
       0.18391123 -0.07036204 0.0009763405 0.11194052
000190 05 23 1a 3e d6 9d 97 3d e9 ce 0a be 37 94 80 be
       0.15052421 0.07403152 -0.13555492 -0.2511308
0001a0 4c 84 59 3e 82 e5 11 3d 73 d0 92 3d a0 97 7e be
       0.21241874 0.035619266 0.07168665 -0.24862528
0001b0 2f 61 41 3d b3 30 05 be 91 3e 49 bd 52 a8 43 3e
       0.047211822 -0.13006859 -0.049131934 0.19107178
0001c0 d5 d1 2d be 77 03 65 3d d5 11 83 3d 9c 30 52 bd
       -0.16974576 0.055911507 0.063998856 -0.05131589
0001d0 55 e9 bb bd 69 25 15 be 37 ad 25 3e 5b 7b ff 3c
       -0.09175364 -0.14565052 0.16179357 0.03118675
0001e0 45 9a 86 be bc 09 71 be 12 c4 09 be 5c c3 0e 3e
       -0.26289573 -0.2353887 -0.13453701 0.13941711
0001f0 84 3f 36 3b 91 60 b9 bd 93 84 23 bd c2 be 64 3d
       0.0027808854 -0.09051622 -0.039921355 0.055845983
000200 6f 8a 0a 3e ab 18 32 bd 9b b7 3b 3e d7 c3 c7 3e
       0.1352937 -0.043480556 0.18331759 0.390166
000210 50 05 96 3d 2e be 30 3e fd ab e6 3e dd 5d 7a be
       0.07325232 0.17260048 0.45053092 -0.24449869
000220 94 e1 d8 be d9 eb 47 3e 72 06 9e bd 68 d7 da 3e
       -0.42359602 0.19523562 -0.07716073 0.42742467
000230 59 25 1f 3d 6a d5 3e be a9 fd 59 3e 52 2c 44 3d
       0.038853977 -0.18636099 0.2128817 0.04789383
000240 83 22 fd 3d 60 5d 1d 3d 6e f7 f2 be 6d 38 98 bd
       0.12360098 0.038419127 -0.474544 -0.07432637
000250 16 83 cf 3e 28 53 cb bc 5b 01 4c 3e 48 97 a1 3b
       0.40529698 -0.024819925 0.19922392 0.004931364
000260 ff ab 41 be bf 56 78 3e 77 bb 8a 3d f4 de 5b be
       -0.18913268 0.24251841 0.06774037 -0.21471769
000270 08 63 8d 3e b9 19 b2 3e 8e 4a a0 be 73 e0 63 3e
       0.27614617 0.3478525 -0.3130688 0.2225359
000280 72 24 b0 be ae 54 b7 bc 2c 49 ad 3e 8e e0 3f be
       -0.34402806 -0.022379246 0.33844888 -0.18738005
000290 13 48 94 bd 18 64 c4 3e fb ea 2c 3e 1f be 3e 3e
       -0.072403096 0.38357615 0.16886513 0.18627213
0002a0 18 ec 24 bd 6b 01 dd 3e 58 c5 2b 3e bf eb f1 3e
       -0.04026422 0.43165144 0.167745 0.47250172
0002b0 04 a2 c9 3d d4 98 88 3e 5d 75 db be 41 40 a5 3c
       0.09845355 0.266791 -0.4286298 0.02017224
0002c0 ba d3 86 3e 6a d2 53 3d 80 14 59 be 9b 2b dd 3d
       0.2633341 0.05171434 -0.21199226 0.10799333
0002d0 2f 6e 34 3e af 22 e6 3e fd 50 98 3e 82 c8 b9 3c
       0.17620157 0.44948336 0.2974929 0.022678617
0002e0 eb 7b ac bd 17 4c a1 3e 18 4c 88 3e 05 f0 f3 bd
       -0.08422073 0.31503364 0.26620555 -0.119110145
0002f0 73 2e d4 3d 56 ee c6 bd e2 6b ad bd 5a 30 7f 3e
       0.10360422 -0.09713428 -0.08467843 0.24920788
000300 4a cf e1 be 46 2e d5 3c e0 ec 27 3e f2 89 cc be
       -0.44103462 0.026023041 0.16398954 -0.39948994
000310 69 58 74 be 51 cb 59 3c 7c cb e6 3e ed 94 8d be
       -0.23861851 0.013293103 0.4507712 -0.27652684
000320 de 92 2a 3e 29 1f 49 3e 22 4f a0 be 15 1b 68 3e
       0.16657588 0.19640793 -0.31310374 0.22666581
000330 c7 2d bc bd 40 8a 26 3d ff ce 67 3e 7a 16 3c be
       -0.09188419 0.04065919 0.22637556 -0.18367949
000340 87 46 1b 3e f9 20 d0 3e f3 94 bd 3c af 75 f1 bc
       0.15163623 0.40650156 0.023142314 -0.029475061
000350 08 5f 5e be 68 df b8 be 71 5c d1 bd 61 1e 25 bd
       -0.21715939 -0.36107945 -0.1022271 -0.040312175
000360 68 d3 d1 3d 22 56 18 3e af 49 bf 3e ad 34 bf 3d
       0.10245401 0.14876607 0.37360904 0.09336219
000370 5a da 98 3e ed b2 ba 3e cf 1a af 3d a3 f7 17 be
       0.2985409 0.36464635 0.08550035 -0.1484056
000380 d0 64 8a bd 25 99 11 bd 39 12 79 3d d2 93 dc be
       -0.0675751 -0.03554644 0.060808394 -0.43081528
000390 b4 94 3e be 07 62 a3 3e 27 ef 28 3e a6 6e 21 3e
       -0.18611413 0.31910726 0.1649748 0.15764865
0003a0 2a 79 d1 bd b1 f1 48 3e dc 73 4d 3e d6 80 f0 3e
       -0.10228188 0.19623448 0.20063728 0.46973294
0003b0 e7 a5 8b bc 09 3b 93 3b 4c 60 9d bc 51 18 a1 bd
       -0.017046882 0.0044931215 -0.019210957 -0.07865966
0003c0 37 7f 9b 3d 87 cd 3f 3c cd 87 0b 3e c5 30 93 3d
       0.07592624 0.011706716 0.13626023 0.071870364
0003d0 65 be a3 3a 47 e8 83 3e d3 6f 5a 3e 90 ca 5d 3e
       0.0012492655 0.2576315 0.2133172 0.21659303
0003e0 67 ad 02 be 46 cf f0 3d 1c 63 0f 3c 58 0c d2 3d
       -0.1276146 0.11758284 0.008751657 0.10256261
0003f0 1a d1 3d 3e cb a4 d2 39 8a 57 e3 3c a9 5e b6 3d
       0.18536797 0.00040177102 0.027751703 0.08904774

fc2.bias f4 [32]
000000 62 f9 70 be c4 01 a2 3c 89 b7 af be c8 cd 5f be
       -0.23532632 0.019776233 -0.34319714 -0.21855843
000010 94 19 f9 3c 6a a7 cf be 8a de d9 3e d4 cb 70 3e
       0.030407704 -0.40557414 0.42552596 0.23515254
000020 5b 58 07 3d bc f5 c3 bd 57 2c c3 be 63 5d f6 be
       0.033043247 -0.095683545 -0.38119766 -0.48118123
000030 3f 23 b2 be 9b e0 5e 3e 85 34 ef bd 17 63 05 be
       -0.34792516 0.21765368 -0.11679939 -0.13026081
000040 55 9d 21 be 06 ac cf 3e b2 55 97 be 7b a9 03 be
       -0.15782674 0.4056093 -0.29557568 -0.1285762
000050 85 23 d6 3e dc e9 75 be 21 e2 e8 3e 7f 64 a2 3e
       0.41823974 -0.24014992 0.45485023 0.31717297
000060 96 6c dc 3e ec 9f ce 3e 17 54 4b bd 11 32 a2 be
       0.43051594 0.40356386 -0.04964074 -0.31678823
000070 2a 8b 5d be d8 b6 71 3e 43 1b e0 3e d5 aa 29 3e
       -0.21635118 0.23604906 0.437708 0.16569073

fc3.weight f4 [1, 32]
000000 ed 3b 9f 3e c2 bb 09 bc ca 59 65 3e 80 d4 1a 3e
       0.31100407 -0.008406581 0.22397533 0.15120125
000010 fb e5 44 3d f1 fa 53 3e e6 a0 c7 bd 2c 09 89 be
       0.04807089 0.20701195 -0.09747486 -0.2676481
000020 1e fd a5 be fb 3b 23 3d 2c 94 a0 3e bb 22 ac 3e
       -0.32419676 0.039852124 0.31363046 0.33620247
000030 4f d8 ac 3e dd 62 25 be 85 a1 b1 3c cc be 89 3e
       0.3375878 -0.16150995 0.021683464 0.2690338
000040 1c b4 a7 3e 70 ed 99 be 07 d4 5c 3e 40 89 01 bc
       0.327546 -0.30063963 0.21565257 -0.007906258
000050 fd a2 39 be b2 e0 37 3d 45 da b0 be b2 43 31 be
       -0.18128581 0.04489202 -0.34541526 -0.1731098
000060 c3 b5 30 be 2f 92 71 be 21 bf 88 3d da fd 63 3e
       -0.17256837 -0.23590921 0.0667708 0.22264805
000070 6e 51 95 3e 60 b2 28 be bd 9b 31 be 78 14 1f be
       0.29163688 -0.16474295 -0.17344566 -0.15535152
